contrastive_checkpoints/adapter_model.bin (torch, 911049 bytes, 72 tensors)

base_model.model.model.encoder.layer.0.attention.self.query.lora_A.weight f4 [8, 384]
00000000: 173e 9dbc 4d2a a03b 159e fa3b 3707 ac3c
00000010: c141 18bd ea13 293d 1b45 ae3c 6aa1 ca3c
00000020: 44ea e03c 4d21 043c 4434 553c e7ba a5bc
00000030: df2a 413d d16c 51bb 7223 babc 693b 093d
00000040: 9795 20bd 2c3d 0b3d f0ea d0bc 562d 87bc
00000050: c458 3fbd a039 8b3c 9898 3bbc da95 0b3d
00000060: a9bf cdbc 0828 febc 87a0 6c3c d8a0 0bbd
00000070: f6f8 94bc e937 3c3d cd03 11bd f66f 1bbd
00000080: abc0 89ba 49d8 9cbb 2a02 27bd 7b56 51bd
00000090: b34a 2f3d beb1 ec3c 0809 98ba b93a 3f3c
000000a0: 874b 483d fd0f 6f3c 9fbd 143d f794 b23c
000000b0: f6b7 ca3b b3fe 10bc 65a8 ef3a ebea 333d
000000c0: 2a3f 363d 8815 39bd fbdb 4abd 0fb2 3c3d
000000d0: 869a 533c 13dc 433c 3cf7 20bd 39f4 40bd
000000e0: bd3e 933c 6043 6ebc ab4a 1fbd 0e73 8e3c
000000f0: 9519 323c 207a fd3c ee46 013d 936b b03b
00000100: 670d 14bd ecbb cabb 06e5 3ebd a4e1 303d
00000110: e9e1 ccbc 22d5 e3bc 23f1 fb3b 323b ac3c
00000120: d803 11bd 8818 8bbb 4c77 21bc 0019 ea3c
00000130: 2e1f a63c c127 1a3a 1618 0d3d 6925 52bc
00000140: 2ce9 01bc e1e6 013d 9554 1d3c 35e0 e93c
00000150: 5578 993c df1e 2a3d ce64 18bd b54f 3a3d
00000160: 51a9 cbbc 2622 0cbc f24b 3fbd 5dd5 4a3d
00000170: ce8e 1a3c 05af 243d fa24 4d3d 09f5 913c
00000180: d79a 81bc 5bc5 bdbc c73c a13a 510e 5ab9
00000190: f7ef a8bc 34c8 13bd 3a80 3abd 503d 073d
000001a0: f76c e33c 962e 223d 90f1 24bc 86a5 39bb
000001b0: e216 4bbc 9db7 6dbc 4d49 f93c 66c6 ecbc
000001c0: d990 40bd 84da 073d 994c 953c 32f2 5abb
000001d0: efcb 05bd 7ab3 273d 8202 e4bc 5a93 18bd
000001e0: 9f74 23bd 8cd9 82bc 11e3 033d bc9e c6bc
000001f0: d2d6 3dbd 21ce 603c 254f 053d 824a cebc
00000200: 438a 2cbd a82b bb3b e249 1e3b 85cf 21bd
00000210: 22db acbb 96d4 623c d653 363d 78bc 4e3d
00000220: 2267 0cbd 826a 07bc 7711 83bc 83a0 a83b
00000230: 6ce2 04bd 68dc 15bd 2eae 983a 9214 3bbc
00000240: 8a63 983c b990 2abd 247a dcbc cf20 90bc
00000250: 18a6 0dbd 9d84 45bc 0303 40bb d858 933c
00000260: 31a1 52bc 96f6 3bbd 7818 503d b331 aa3c
00000270: 1a62 e8bc ca9d 1f3d c840 13bd 1407 2bbd
00000280: dfd2 38bb c0cf b6bc 924e 0cbb 173f 02bd
00000290: 5fac a5bc 0f65 4cbd a3cb 5e3c 5131 083d
000002a0: 947c 1eba f668 6d3c 4f50 29bd cd8d f63c
000002b0: 5ab3 19bd 9c19 21bd 76be 9cbc 3144 4fbd
000002c0: b9fe 563c f6df 413b a7bd b2bb b3d4 bebb
000002d0: 5300 3e3d 5cec e33c bdf6 34bd 3fae cb3c
000002e0: 4a38 c83c f6e0 66bc 8e2f 383c cd93 2cbd
000002f0: 6751 08bd fed7 38bd 8318 fd3b 9dc8 3f3d
00000300: 2918 35bc 51ac d93c 29b4 79bc e67d 4ebd
00000310: 4bd4 1b3d 6a24 93bc dfc1 2dbd af6a 1d3d
00000320: 3136 15bd 7d97 153d dea3 233d 0ca8 893c
00000330: a848 20bd 19c3 843c 5a46 2e3d b620 82bc
00000340: 658c 4a3d 6601 4cbb 9543 13ba c1a8 42bd
00000350: 2afc d9bb feb9 303d 8a6f 5b3c 181d e2bc
00000360: e5ff fbbb 3ffb 85bc 5a30 1ebd 5a3a 10bd
00000370: cd14 36bd 22ab fd3c 8a2e 0cbd 2576 383d
00000380: 132b 263d ce77 433d 2728 28bd 0aea 3abd
00000390: 337e 193b 3094 443d 1baa a5bc 14b1 6b3c
000003a0: b5fe d33c 4454 183d ebad a4bc cde7 ac3c
000003b0: e6da a1bc 9cf6 bbbc 607d 193d 7a76 b7bb
000003c0: 7f33 173d 8b7f 9b3c eb2d 1cbd 544e 253c
000003d0: c6bb 723c e8ae 263d 6e5f 3cbd 9273 bbba
000003e0: 894a 263d 68ab 08bc a14d e5bc c11f 28bd
000003f0: e5aa 0dbd 376f 023d 8e51 fbbc 6173 233c
-0.019194646 0.004887855 0.0076482394 0.020999534 -0.037172083 0.041278757 0.021273186 0.024735171
0.027455457 0.00806458 0.013012949 -0.020230724 0.047160026 -0.0031955729 -0.02272198 0.033503924
-0.03920516 0.033993885 -0.025502652 -0.01650111 -0.046715513 0.016995251 -0.011449955 0.034078456
-0.025115805 -0.031024948 0.01444257 -0.03408894 -0.01818512 0.045951758 -0.035404015 -0.03794857
-0.001050969 -0.0047865254 -0.04077355 -0.051107865 0.042795848 0.028893348 -0.0011599371 0.011671715
0.048900153 0.014591214 0.03631365 0.021799548 0.0061864806 -0.0088497875 0.0018284438 0.043925207
0.04449383 -0.04518655 -0.049526196 0.046068247 0.012915259 0.011954325 -0.03929828 -0.04710791
0.017974252 -0.014542431 -0.03888957 0.017388847 0.010870357 0.030942023 0.031561784 0.0053839176
-0.036145594 -0.006186953 -0.046605133 0.043183938 -0.025010066 -0.02781159 0.007688658 0.02102432
-0.035404056 -0.0042448677 -0.009855103 0.028576374 0.02027854 0.00058805576 0.0344468 -0.012826302
-0.007929128 0.031714324 0.009602685 0.028549293 0.018734137 0.041533347 -0.03720551 0.04548617
-0.02486101 -0.0085530635 -0.046703286 0.049519885 0.009433461 0.040205974 0.05008409 0.017817037
-0.015820904 -0.023165395 0.0012301438 -0.00020795433 -0.020622237 -0.0360796 -0.045532443 0.033017457
0.02776192 0.03959521 -0.010067359 -0.002832742 -0.012395592 -0.014509109 0.03043046 -0.028903197
-0.047013137 0.033167377 0.018225001 -0.003340852 -0.03266519 0.040942647 -0.027833227 -0.0372499
-0.03990614 -0.015972875 0.03219897 -0.024245612 -0.046347447 0.01372102 0.03254618 -0.025182012
-0.042124044 0.0057119913 0.0024152924 -0.039504547 -0.005275146 0.01384463 0.044513546 0.050472707
-0.034278043 -0.00826514 -0.015999539 0.0051460876 -0.032442495 -0.03658715 0.0011648589 -0.011418479
0.018602151 -0.041641925 -0.02691371 -0.01759377 -0.034582227 -0.012055543 -0.002929867 0.0179867
-0.012855814 -0.04588946 0.050804585 0.020775652 -0.028367091 0.03896884 -0.035950452 -0.041754797
-0.002820186 -0.02231586 -0.0021409136 -0.03179845 -0.020223795 -0.049901064 0.013598355 0.033250157
-0.0006045785 0.014490357 -0.041336354 0.030096913 -0.03752456 -0.039331064 -0.019133788 -0.05060214
0.013122254 0.0029582954 -0.005454737 -0.0058236956 0.046387028 0.027822666 -0.04418062 0.02486336
0.024440903 -0.014091721 0.011241807 -0.04213314 -0.033280756 -0.04512786 0.0077238693 0.04682218
-0.0110531235 0.026571425 -0.015240707 -0.050413035 0.038044255 -0.0179617 -0.042421218 0.03843182
-0.036428634 0.036521424 0.039951198 0.016803764 -0.03913179 0.016206311 0.04254756 -0.015884738
0.049450297 -0.0031128763 -0.00056176755 -0.047524218 -0.0066523748 0.043146126 0.013393292 -0.027601764
-0.007690417 -0.016355155 -0.03862033 -0.0352119 -0.04445343 0.030965392 -0.03422407 0.045034546
0.040568423 0.047721677 -0.041053917 -0.045633353 0.0023421168 0.047992885 -0.020222714 0.01438548
0.02587829 0.037189737 -0.020102462 0.021106625 -0.0197577 -0.022944741 0.037473083 -0.0055988403
0.036914345 0.018981716 -0.03812973 0.010089476 0.0148152765 0.040694147 -0.045989446 -0.001430141
0.040598426 -0.008341648 -0.027991118 -0.041045908 -0.034586806 0.031844344 -0.030678537 0.009976239

base_model.model.model.encoder.layer.0.attention.self.query.lora_B.weight f4 [384, 8]
00000000: 5ddc 09b8 2ce4 d8b7 5517 5fb8 59b1 3fb7
00000010: c950 d1b7 0e57 0234 0615 af38 8b15 d638
00000020: 787d 12b8 3154 0437 e881 25b8 1324 0fb9
00000030: 1f8f e9b7 7e85 8c38 d962 f2b7 7953 e037
00000040: df4d e9b6 218c a337 60e0 02b9 c597 e1b8
00000050: a63c e2b7 686c c238 bd20 f5b7 e1dc ac38
00000060: d4ea 15b9 8dea 16b8 cd4c a6b7 ecee 14b8
00000070: cda2 0ab9 a2fc a6b7 4361 b738 0609 4a36
00000080: 5c30 71b7 6249 6237 668f dcb7 9f3f 0cb9
00000090: 0c58 efb7 24bc 51b8 baa6 1bb8 8f2f 0838
000000a0: 905b b8b7 2ea0 d6b8 f63b ad38 4d3d 0db9
000000b0: 623b 00b8 f0c8 ab38 92bb b737 03cf f937
000000c0: 48d8 14b6 e9da f9b7 9af2 0539 d4cb b438
000000d0: 79c4 aa37 a250 b5b8 b4d0 4c37 4aec 96b6
000000e0: 830d 10b8 7f3c 04b9 3fc7 fdb4 2daa 07b8
000000f0: 24f1 08b9 6ce7 b138 6e0e cd37 9f1b d437
00000100: 67b2 0e39 2444 2cb8 1bfb c6b8 a027 f137
00000110: 8fcf 0d39 972f a4b8 2256 a437 b47a f0b8
00000120: e88e 1438 db33 b4b6 9791 0f39 5ed2 0839
00000130: 2b05 f637 9f27 9237 d7ba 04b7 2176 e2b7
00000140: cc37 f0b8 2e78 0038 4514 c4b6 007c 1839
00000150: fd3b 0238 6948 1739 8655 0c39 1cdc fcb8
00000160: c173 d8b7 4380 57b7 c784 e4b7 7c86 0eb9
00000170: a170 e4b7 57f3 e0b7 5e76 8ab8 d4eb fc37
00000180: e694 ffb7 9887 dfb7 7d93 cbb7 8a80 0eb9
00000190: 7785 f7b7 c44f 84b8 3a26 ccb8 8f49 0838
000001a0: 6371 0d38 2f4a 0838 a38b f037 c85b 0f39
000001b0: 75cc ea37 8da7 d137 5a24 1e37 f275 f2b7
000001c0: 7225 ca38 1546 e7b7 c0df c137 618e f3b6
000001d0: 7d7f 0c39 2c11 abb8 7475 16b9 55c9 e035
000001e0: 9df3 1238 fc7a 1338 f2cf b037 0dca 0d39
000001f0: 21e4 0b39 33f6 b537 a13a fa37 b14b 08b8
00000200: cc63 b538 1579 8db7 e5c2 acb7 96c6 14b9
00000210: 7ea1 0bb9 93cb 15b9 c822 13b9 4a9d 0b39
00000220: 84a2 f3b5 c058 6fb7 ec4e f5b7 d368 eab8
00000230: f176 0bb9 371c 0fb8 31eb c4b7 0ff6 31b7
00000240: b3d0 0438 b39e 1038 f769 6037 bff9 0d39
00000250: 0ff7 fc37 a69e 0b39 bfda 1839 3851 0cb9
00000260: 8e8e 08b9 2985 ac37 bf8c c037 3c80 a538
00000270: d7c8 b237 9f03 1c39 93fd 0839 8a74 b9b8
00000280: 1d1e 13b8 856b a6b8 e3bc 00b8 d756 10b8
00000290: eeda f2b7 7e3a b038 25fd ca37 6d85 e937
000002a0: 9169 d138 9422 deb7 c130 c538 42a1 8536
000002b0: 0111 0337 958a 15b9 b886 0ab9 c246 1139
000002c0: deaf 0f39 2eeb d238 9f7b 87b7 6cb1 f637
000002d0: c733 0839 3756 13b9 a1a3 32b7 4e69 0bb9
000002e0: 52c8 10b9 1391 13b9 66be ab37 9347 e4b7
000002f0: efdc 1b39 2c89 1339 94b3 0f39 1b91 bfb8
00000300: c7af f8b8 0bc9 0ab9 1487 f038 32c7 08b8
00000310: 3981 b1b8 955d e937 5e44 d837 0d78 63b7
00000320: a042 1338 d5fd 1638 d1c5 e937 f6ae 0d39
00000330: 41bd f437 95dc 3337 3e2c fa37 1b62 ddb7
00000340: aad2 f8b7 2b9b b0b6 93cf b3b7 0dae fcb8
00000350: 2a8c eab7 2a86 87b7 3f54 91b8 a3f4 d637
00000360: b576 d1b7 3483 7cb8 6e5a 0db9 4f4f 05b9
00000370: fce6 03b8 1281 c738 a14c cb37 9b68 8137
00000380: 7f08 0e38 16ed 0c38 8674 b937 9505 9637
00000390: aa73 c837 1309 aeb8 3fb0 6fb7 8b21 eab7
000003a0: 1936 0738 67ae 0739 a092 a437 c833 0d39
000003b0: e694 0638 2472 ecb8 8509 d437 4c53 d4b7
000003c0: b184 0eb9 626b 08b8 5b01 0838 d715 c6b7
000003d0: 7f90 8d37 d9f5 0739 6586 2139 4ae3 0b39
000003e0: fe39 0c38 dd34 f8b7 f8a0 0739 8008 8b37
000003f0: 0657 e237 8b36 ccb8 d696 beb7 803a 9737
-3.2868575e-05 -2.5855457e-05 -5.3189073e-05 -1.1425779e-05 -2.495236e-05 1.2138864e-07 8.348566e-05 0.00010208328
-3.4925964e-05 7.887415e-06 -3.946005e-05 -0.00013650981 -2.784241e-05 6.700585e-05 -2.8894678e-05 2.674175e-05
-6.9530065e-06 1.9496367e-05 -0.00012481352 -0.00010757105 -2.6969541e-05 9.270833e-05 -2.922152e-05 8.242741e-05
-0.00014297228 -3.598123e-05 -1.9824505e-05 -3.5508463e-05 -0.00013221354 -1.9906383e-05 8.7442364e-05 3.0105598e-06
-1.4375979e-05 1.34877355e-05 -2.6292819e-05 -0.00013375141 -2.853202e-05 -5.0004703e-05 -3.7110156e-05 3.246922e-05
-2.1977146e-05 -0.00010234151 8.2604514e-05 -0.00013469644 -3.0572883e-05 8.191343e-05 2.1902644e-05 2.977951e-05
-2.217961e-06 -2.9785051e-05 0.00012774245 8.621035e-05 2.0357069e-05 -8.6457716e-05 1.220794e-05 -4.497856e-06
-3.434486e-05 -0.00012611038 -4.7269893e-07 -3.2344997e-05 -0.00013059803 8.4831234e-05 2.4444624e-05 2.5285231e-05
0.00013608635 -4.1071457e-05 -9.488148e-05 2.874789e-05 0.0001352413 -7.828994e-05 1.9590432e-05 -0.00011466947
3.541904e-05 -5.370455e-06 0.00013691779 0.00013048339 2.9327892e-05 1.7423006e-05 -7.911315e-06 -2.6996307e-05
-0.00011454485 3.0629504e-05 -5.843615e-06 0.00014542043 3.1050284e-05 0.00014427457 0.000133833 -0.00012057295
-2.5803109e-05 -1.2844862e-05 -2.7241547e-05 -0.00013592275 -2.7232165e-05 -2.6816195e-05 -6.6024004e-05 3.0150557e-05
-3.0467705e-05 -2.6646812e-05 -2.4268165e-05 -0.0001359006 -2.9506844e-05 -6.309108e-05 -9.734598e-05 3.2493434e-05
3.372262e-05 3.2494016e-05 2.8675253e-05 0.00013671734 2.7990181e-05 2.4992763e-05 9.425998e-06 -2.890357e-05
9.639085e-05 -2.756998e-05 2.3111585e-05 -7.2585394e-06 0.00013398934 -8.157114e-05 -0.0001434887 1.6747896e-06
3.5035995e-05 3.516207e-05 2.1077667e-05 0.00013522078 0.00013341058 2.1691527e-05 2.9829624e-05 -3.249542e-05
8.649341e-05 -1.6864893e-05 -2.0594753e-05 -0.00014188359 -0.00013316234 -0.00014285585 -0.0001403197 0.00013314668
-1.8152209e-06 -1.4266174e-05 -2.9243027e-05 -0.000111775145 -0.00013300382 -3.4120134e-05 -2.347454e-05 -1.0607312e-05
3.166562e-05 3.4480076e-05 1.3376112e-05 0.00013539846 3.0155787e-05 0.00013315174 0.00014577339 -0.00013381697
-0.00013023076 2.0566005e-05 2.2953724e-05 7.8916986e-05 2.1312777e-05 0.00014878668 0.00013064434 -8.8431945e-05
-3.5075576e-05 -7.935524e-05 -3.0693493e-05 -3.441315e-05 -2.8950595e-05 8.403229e-05 2.4198156e-05 2.7837896e-05
9.98556e-05 -2.6480564e-05 9.402773e-05 3.9824818e-06 7.8121675e-06 -0.00014261373 -0.00013210892 0.00013854637
0.00013703058 0.00010057386 -1.615082e-05 2.9408104e-05 0.00012989259 -0.0001405113 -1.0647725e-05 -0.00013295302
-0.00013807535 -0.00014073057 2.047345e-05 -2.7213047e-05 0.00014864256 0.00014070113 0.00013704441 -9.134618e-05
-0.000118583026 -0.000132356 0.00011469252 -3.2610442e-05 -8.464087e-05 2.7819342e-05 2.5781042e-05 -1.3558206e-05
3.510958e-05 3.5999186e-05 2.786788e-05 0.00013511986 2.9175195e-05 1.072059e-05 2.9822924e-05 -2.6390937e-05
-2.9662002e-05 -5.2632727e-06 -2.1435122e-05 -0.00012048716 -2.7960243e-05 -1.615573e-05 -6.929831e-05 2.5624706e-05
-2.4970019e-05 -6.0203674e-05 -0.00013480496 -0.00012713413 -3.1447955e-05 9.513101e-05 2.4235169e-05 1.5426709e-05
3.386335e-05 3.3599405e-05 2.2107979e-05 1.7883993e-05 2.3895718e-05 -8.298657e-05 -1.4286546e-05 -2.7910593e-05
3.223689e-05 0.00012939573 1.9618601e-05 0.00013466098 3.2086762e-05 -0.00011274617 2.5276802e-05 -2.5311158e-05
-0.00013591607 -3.2524935e-05 3.242619e-05 -2.361361e-05 1.6875796e-05 0.00012966189 0.00015404222 0.00013340745
3.343261e-05 -2.958852e-05 0.00012934569 1.657405e-05 2.6981823e-05 -9.7376374e-05 -2.2720003e-05 1.8027844e-05

base_model.model.model.encoder.layer.0.attention.self.key.lora_A.weight f4 [8, 384]
00000000: 9b00 f4ba 4949 27bd 9214 bd3c 270a ddbb
00000010: 7398 d53a 311f ecbc cf4f c13c d3a5 f13c
00000020: 47f9 33bd 3660 0f3d 4e47 0f3d edf5 213d
00000030: 4ba1 22bd 655a d5bb b170 efbb 86c1 063d
00000040: 7a9b 0abd 043f a63b 0da3 b43c 32e7 16bd
00000050: b2b5 01bd 576d 23bd 934c 143d bc2b 713b
00000060: 958d 32bd 56e9 29bd 59de 123d d812 38bd
00000070: 3635 0abd e29a 82bb 1239 483d bd09 183d
00000080: f55a 683c 2f13 2bbd c809 393d 39dd a1bc
00000090: e95f 31bc fabd 363d c0e1 983c bc37 8ebc
000000a0: 2538 073d bbbc 2c3d bf44 da3b f533 2abd
000000b0: eaaf 1d3d 9855 0dbd 98a2 b9bc 46fc 4fbd
000000c0: fae9 493d 01e8 2d3d 1401 a0bb 9464 27bd
000000d0: 2f05 823c b095 213d dfb0 1e3d 8254 d9bc
000000e0: 9fd1 6b3c 4dbc a7bc 5d3a 0a3d 295d 36bc
000000f0: 1111 f6bc 282d 36bd 228e 02bd 3ab0 8ebc
00000100: b263 12bd 3ce2 483d 625c ee3c 3651 0ebd
00000110: 361f 763c 5235 66bc 9048 0b3d c5e7 e3bc
00000120: 69d3 c4bb a59a 1a3d a0c1 56bc 7029 bfbc
00000130: 7e86 253d 8a24 e0bb 968f 5f3c 2f13 333d
00000140: 6c05 5b3c 14a8 373d 4aa3 3dbd a066 4cbc
00000150: d44d 0cbc 1f8e cabc 070a 19bd f417 4d3d
00000160: a609 363d 9a8d b03c ed5c 3cbd 0cc0 febc
00000170: f45a 973c 25c7 173d d48e 4c3d 7e27 3a3d
00000180: 8b09 0cbd 4a1a 463c 4dd2 34bd a073 f6bc
00000190: 1794 babc 15f2 483d 39f2 37bd ea48 09bb
000001a0: b7b1 a6bb 77e8 f63c ba81 db3c 7f89 49bd
000001b0: f850 9e3c dd96 2fbc 31f4 323d 296a 1cbc
000001c0: d9cc 883c 4d9e abbc b9c1 663b 5f91 5abb
000001d0: 81b8 273d f26a a33c 7ed2 32bc 3a74 dabc
000001e0: d1f5 1abd 8e3d 14bd bd2e 29bd 7609 b33c
000001f0: c80e e3bb 3198 323d bee8 b83c 6e88 013c
00000200: 5ebe 3abd d32c 49bd 5406 1e3d 1666 e23b
00000210: 7685 20bd 54cb a23c f501 f53b 901c 753c
00000220: e778 15bd 6a05 7cba cb60 303c a29b 0dbd
00000230: a467 24bd 138d 123d de09 02bc 8bc6 29bd
00000240: 8e3a 1abc ce25 2cbd c3b4 363d f640 03bd
00000250: 0a45 05bd 0046 4cbb d7b2 4abd e313 35bc
00000260: f143 8e3c 3a10 59bc 390a bbbc e9a8 4f3c
00000270: 982c 44bd d2e9 cfbc c200 2bbd 5753 1abd
00000280: 18f8 22ba 42da 143d 5787 2abd 3efa ecbc
00000290: 77e9 3dbc 553d 25bd 6f56 bfbb 398b 173d
000002a0: 56c2 cabc 4de0 56bc 5d5c dbbc 5ca5 da3a
000002b0: 19df ac3c 9327 b8bc eb49 cd3c 8385 07bc
000002c0: 12a3 623b 5c73 1c3d 3663 b73c 3959 a33c
000002d0: 00ad d13c e502 1d3d a91f 043d 3228 8e3a
000002e0: d317 403c 1f0f e5bc cef4 75bc 9dfb 85bc
000002f0: 6a6f 58bc 5d20 d0bb 53c4 32bd 03cb 85bc
00000300: ca9c 02bd c7d1 cbbc f016 44bb f408 95bc
00000310: 4104 17bd 78c2 143d 705d cd3c 1693 d7bb
00000320: 45bb a9bc 374f 8b3c 1697 adbc 43a0 083d
00000330: cda1 b83c d349 bfbc 75c1 cdbc 274d 523c
00000340: 14e8 653b fd38 48bc 21dc 273d 591c 2fbd
00000350: f5ca 713b 5bfa 85bc bf53 2f3d f65f 213d
00000360: 2c65 cc3c 6483 3a3d f34a 01bd 2e25 96bb
00000370: 50d5 acbc ff34 3fbd 1f9a 05bd a662 003d
00000380: e878 a9bc c1e3 ea39 0802 babb b158 1fbd
00000390: 0160 46bd 31c5 583c 85ce c23c 548c fb3b
000003a0: 2122 d43c 81fa cabc 1c4d 523c 2f16 26bc
000003b0: a69c 0f3d a776 2b3d aede 00bd c27d 7cbb
000003c0: 6664 acbb 22d6 f8bc 9566 d53c ab07 d4bb
000003d0: d36f 5d3c 6b55 d6bc dfad 3d3d 932d 12bc
000003e0: a8b1 38bd 4459 683c 065e 1e3d 2c68 50bd
000003f0: b2c1 643c a7d0 4f3d 027b 27bd 131b 67bc
-0.0018615903 -0.040841375 0.023081098 -0.006745595 0.0016296044 -0.028823467 0.023597626 0.029498016
-0.0439389 0.035003863 0.03498011 0.039541174 -0.039704602 -0.00651102 -0.007307135 0.032899402
-0.03383968 0.00507343 0.022050405 -0.03684158 -0.03166742 -0.039899196 0.03620584 0.003679975
-0.043592054 -0.041482292 0.03585658 -0.044939846 -0.033742152 -0.0039857486 0.04888255 0.037118662
0.014181842 -0.04176634 0.045175344 -0.019758807 -0.010826089 0.04461477 0.018662333 -0.01736056
0.033012528 0.042172175 0.006661027 -0.041553456 0.038497843 -0.034505457 -0.022660539 -0.050777696
0.049295403 0.042457584 -0.004882941 -0.040867403 0.015871612 0.039449394 0.038742896 -0.026529554
0.014393239 -0.020475531 0.033747066 -0.01113061 -0.030037435 -0.044476658 -0.03187383 -0.017418016
-0.035739608 0.04904388 0.029096786 -0.034745418 0.01502209 -0.0140507985 0.034004748 -0.027820477
-0.0060066474 0.037745137 -0.013107687 -0.023335189 0.040411465 -0.0068402933 0.013645073 0.043719467
0.013367992 0.044838026 -0.046298303 -0.01247564 -0.008563478 -0.024725972 -0.03736308 0.05007167
0.044442795 0.021551896 -0.04598706 -0.031097434 0.018475987 0.037055153 0.0499409 0.04544782
-0.03418879 0.012091229 -0.04414587 -0.030084431 -0.022775693 0.049058992 -0.044908736 -0.0020948001
-0.005087103 0.030140145 0.026795257 -0.049203392 0.019325718 -0.010717121 0.04368991 -0.009546795
0.016699241 -0.020949507 0.0035210683 -0.0033350808 0.04094744 0.019948456 -0.010914443 -0.02666675
-0.037832085 -0.036191516 -0.04130434 0.021855097 -0.0069292523 0.043602172 0.022571918 0.0079060625
-0.045591705 -0.049115013 0.038580254 0.0069091422 -0.03918978 0.019872345 0.00747704 0.014960423
-0.036492255 -0.0009613844 0.010765265 -0.03457225 -0.040137902 0.03577907 -0.007936923 -0.04144911
-0.009413375 -0.04202824 0.04460598 -0.032044373 -0.032536544 -0.0031169653 -0.04948696 -0.011052105
0.017366381 -0.013248498 -0.022832023 0.012674549 -0.04789409 -0.025380049 -0.04174877 -0.037677135
-0.00062167784 0.03634096 -0.041632976 -0.028927919 -0.011591307 -0.040341694 -0.005839161 0.036998007
-0.02475087 -0.013115001 -0.02677744 0.0016681361 0.021102475 -0.022479808 0.02505966 -0.008271578
0.003458206 0.038195953 0.022386175 0.019940006 0.025595188 0.03833284 0.032256756 0.0010845719
0.01172443 -0.027961312 -0.015011979 -0.01635533 -0.013210157 -0.0063515143 -0.04364426 -0.016332155
-0.031887807 -0.024880303 -0.0029920898 -0.018192746 -0.03686929 0.036318272 0.025068969 -0.0065788133
-0.02071918 0.017005546 -0.021190207 0.033355962 0.02253809 -0.023350632 -0.025116662 0.012835777
0.0035080956 -0.012220618 0.040981416 -0.042751644 0.0036894653 -0.01635473 0.042804476 0.039398156
0.024950586 0.04553546 -0.031565618 -0.004582069 -0.02109781 -0.0466814 -0.032617684 0.03134408
-0.020687535 0.00044801648 -0.0056765117 -0.038902942 -0.0484314 0.013230608 0.023780117 0.0076766405
0.02589518 -0.024777653 0.012835767 -0.010137125 0.0350615 0.041861203 -0.031462364 -0.0038527106
-0.005260992 -0.030375544 0.026049891 -0.0064706407 0.0135154305 -0.026163777 0.046308395 -0.008921999
-0.0450913 0.014181439 0.038663886 -0.050880596 0.013962196 0.050736096 -0.040888794 -0.014105576

base_model.model.model.encoder.layer.0.attention.self.key.lora_B.weight f4 [384, 8]
00000000: 0b1d beb7 f538 0f39 0647 0e39 cbc4 2e38
00000010: d307 9c36 c7cd 0bb6 63e9 0eb9 5064 3035
00000020: 11fc fc38 c37e fa37 5e72 8638 c94e 0a39
00000030: 4934 0fb9 b161 0639 2f56 b238 777d 42b8
00000040: 757b 0d39 b58d f237 3082 d338 7a15 0238
00000050: 48a5 16b8 5ff2 1238 ad61 dfb7 9a9e 13b9
00000060: 6761 c7b8 f3b4 c2b7 3917 0939 b669 0a39
00000070: 53a7 1638 4c30 6036 b27e c4b7 ad0a 0eb9
00000080: 21b4 1c39 839d 0b39 67ff ceb5 8b48 0839
00000090: acaf f8b7 dc60 0f39 742f 07b8 ada7 00b8
000000a0: 1fd1 80b7 45a6 0439 1483 2036 362e 1839
000000b0: de35 e838 88ad ff37 80d5 06b9 5668 f9b7
000000c0: f657 5ab7 9997 ab38 b22f 9bb7 0df7 bbb8
000000d0: 7784 0939 5612 12b9 5690 91b8 9313 4f38
000000e0: d568 afb8 1164 b3b8 30f0 a0b8 bece 0cb9
000000f0: fb99 ec38 22ec bcb8 5db9 b9b8 a8e3 9bb7
00000100: 6010 1ab7 095e d8b7 e861 6e37 41d0 0b39
00000110: 3b08 d2b8 a1bf da38 6c0c 54b8 40ad 0d39
00000120: a864 3338 23a6 d0b7 be09 aab8 7cb4 b238
00000130: b317 d137 bfed 0d38 a053 3837 c32b 1339
00000140: 9627 a7b8 2f0b 1238 14eb c937 84d0 0b39
00000150: 76b9 0539 59a4 be37 9ea0 b0b8 2d37 31b8
00000160: fe88 1839 cac0 4eb6 ecc0 dab7 7673 0c39
00000170: 0df2 b138 2d73 b638 4794 1eb9 6bee 1539
00000180: 384a 1039 7cae 0db9 904e e637 b5da aab8
00000190: ce29 1139 7037 aa37 b6eb 11b9 7e31 0338
000001a0: f5df 13b8 9862 10b9 7474 aab8 0c89 bcb8
000001b0: a588 0d39 d920 0cb9 5bd0 19b9 ab55 1539
000001c0: b6f7 da37 c10f 11b9 98b2 03b8 b93d 08b9
000001d0: e023 9b38 2d11 fdb7 a384 0238 4679 e537
000001e0: 42d7 b8b8 73fe 5a38 ad63 ff38 77bc 0b39
000001f0: c8d7 16b9 beb5 1439 745d bdb7 e4bb edb7
00000200: 4b86 cfb7 1860 a4b7 3c7d b0b8 0257 0239
00000210: 3e2c 0e39 41d3 60b6 91d3 edb8 19e1 dd38
00000220: a271 21b9 0213 0639 c944 e2b7 9255 0238
00000230: c35f ceb8 0215 06b8 9eef 1739 8bfe b9b6
00000240: e106 d438 67a3 0fb9 4446 12b9 ff16 14b9
00000250: 9de4 d338 1204 12b9 d1f2 d9b7 96ed bd37
00000260: a17d fd38 768e 1738 20e7 0338 e875 0b38
00000270: 0c01 a9b8 a795 1438 efe8 0bb9 7c67 fab7
00000280: d031 b037 73cb dab7 5d18 b238 7a6b 4238
00000290: b8ec d637 6c78 be36 beec 0ab9 a6f2 e7b8
000002a0: cd48 d5b7 c52e f1b7 ef41 13b9 bc1f 0fb9
000002b0: 54e1 1239 e5e2 deb8 6a5c 8f37 0a6b 0c39
000002c0: 4b43 98b8 a993 0e39 e333 f2b7 472c 0e39
000002d0: b4f1 07b8 330c 0739 c605 0fb9 e81c ce37
000002e0: 9690 aeb8 8929 0338 8568 1039 a1c5 ff38
000002f0: f669 0eb9 1378 0d39 826f e9b7 9779 0cb9
00000300: cefc bb38 11f5 a8b7 0c16 a0b8 c47f efb7
00000310: a7c5 d837 f8bf 09b8 8d1c d637 96dc 1139
00000320: 7dec 8c38 47c1 adb8 dd7a a7b7 bbf9 91b7
00000330: a0b5 0f38 594d 10b9 910d 12b9 8217 3738
00000340: 1cf3 17b9 24c7 b8b8 be20 1538 fe55 1138
00000350: 800c 3ab8 97ad 0a39 a826 0bb9 6e69 0bb9
00000360: 20e5 5238 86f2 09b9 e8dd 0fb9 192d 0bb9
00000370: 7ee2 0b39 978a 12b9 3082 9437 ac0f 0a39
00000380: 8b93 06b9 b198 cc38 64a1 0c39 807b 0e39
00000390: 9641 b5b8 ed67 0e39 8690 1439 7aad 0bb9
000003a0: e22b 0b39 b2d5 f6b7 6fea 0cb9 7dba 09b9
000003b0: ba15 af38 0a8a bdb8 1d0a e937 461f 1939
000003c0: f5a3 da38 82df 8037 85af c538 8957 06b9
000003d0: 7f34 30b8 abf2 0a38 66de adb8 fc61 edb7
000003e0: ce4c bfb7 81b6 09b8 ead5 9ab6 4cc6 d337
000003f0: b6c8 a138 71ab d4b4 cf59 e338 6cc8 15b9
-2.266329e-05 0.00013658761 0.00013568634 4.166811e-05 4.650073e-06 -2.0832392e-06 -0.00013629119 6.5711083e-07
0.000120632474 2.986135e-05 6.4109205e-05 0.00013190055 -0.0001365702 0.00012815629 8.503754e-05 -4.6370053e-05
0.00013492799 2.8914636e-05 0.00010085513 3.1014417e-05 -3.5916717e-05 3.503484e-05 -2.6629155e-05 -0.00014078096
-9.507202e-05 -2.3210863e-05 0.00013073989 0.00013200086 3.591862e-05 3.3406714e-06 -2.3424018e-05 -0.00013546152
0.00014944423 0.0001331475 -1.5422528e-06 0.00012996995 -2.9645707e-05 0.00013673626 -3.2230702e-05 -3.067374e-05
-1.5356169e-05 0.00012650441 2.3918155e-06 0.00014513065 0.000110726556 3.0479176e-05 -0.00012858771 -2.9731698e-05
-1.3014293e-05 8.182153e-05 -1.849965e-05 -8.962872e-05 0.00013114685 -0.00013930476 -6.9410235e-05 4.9370876e-05
-8.364177e-05 -8.554024e-05 -7.674133e-05 -0.00013428458 0.00011282038 -9.008522e-05 -8.856014e-05 -1.858345e-05
-9.182928e-06 -2.5792995e-05 1.4208701e-05 0.00013333654 -0.000100151134 0.00010430744 -5.0556308e-05 0.00013511349
4.277067e-05 -2.4872896e-05 -8.108046e-05 8.521319e-05 2.4925777e-05 3.3838438e-05 1.0986725e-05 0.00014035315
-7.970554e-05 3.4819528e-05 2.4070534e-05 0.00013333751 0.00012752958 2.2726295e-05 -8.422251e-05 -4.2251475e-05
0.00014546883 -3.080861e-06 -2.6077461e-05 0.00013394453 8.485103e-05 8.6998894e-05 -0.00015123292 0.00014298565
0.00013760559 -0.00013511808 2.745472e-05 -8.146969e-05 0.00013843851 2.0291394e-05 -0.00013916087 3.1278927e-05
-3.5256107e-05 -0.00013769639 -8.127923e-05 -8.9900655e-05 0.00013497712 -0.00013363677 -0.00014668836 0.00014241661
2.6102975e-05 -0.00013834146 -3.1399162e-05 -0.00012992964 7.397658e-05 -3.0167948e-05 3.1117943e-05 2.73554e-05
-8.8138986e-05 5.2212225e-05 0.000121779136 0.00013326282 -0.000143855 0.00014182084 -2.2574073e-05 -2.8340095e-05
-2.4738858e-05 -1.959507e-05 -8.415661e-05 0.00012430179 0.00013558657 -3.3501567e-06 -0.00011340448 0.00010580029
-0.00015396488 0.00012786317 -2.697333e-05 3.107411e-05 -9.8406825e-05 -3.1967655e-05 0.00014489747 -5.5430623e-06
0.00010110229 -0.00013698415 -0.00013949821 -0.00014122947 0.000101038466 -0.00013925161 -2.5981486e-05 2.264119e-05
0.0001208738 3.6133883e-05 3.1448086e-05 3.324999e-05 -8.058743e-05 3.5425324e-05 -0.00013342848 -2.9850511e-05
2.100403e-05 -2.6082364e-05 8.4922394e-05 4.63533e-05 2.5621019e-05 5.67646e-06 -0.00013248899 -0.00011060135
-2.542548e-05 -2.8751218e-05 -0.00014043575 -0.00013649365 0.00014007586 -0.00010628047 1.7089962e-05 0.00013391316
-7.260459e-05 0.00013597183 -2.887281e-05 0.0001355867 -3.241161e-05 0.00012879148 -0.00013639693 2.4570574e-05
-8.323898e-05 3.1271516e-05 0.00013771847 0.00012196159 -0.00013581649 0.00013491539 -2.782769e-05 -0.00013396736
8.9639434e-05 -2.0141279e-05 -7.633501e-05 -2.8550516e-05 2.5841246e-05 -3.284213e-05 2.5524083e-05 0.00013910452
6.7197696e-05 -8.2852835e-05 -1.9965164e-05 -1.7401637e-05 3.426301e-05 -0.00013761724 -0.00013928699 4.3652493e-05
-0.00014491047 -8.8108965e-05 3.5554862e-05 3.465078e-05 -4.4357497e-05 0.00013225373 -0.00013270474 -0.00013295349
5.028129e-05 -0.00013155685 -0.00013720209 -0.00013272873 0.00013340448 -0.00013975274 1.7703598e-05 0.00013166544
-0.000128342 9.755919e-05 0.00013411563 0.00013588183 -8.642969e-05 0.0001358089 0.00014168219 -0.00013320698
0.0001327242 -2.9424995e-05 -0.00013438774 -0.0001313481 8.348697e-05 -9.037934e-05 2.7780474e-05 0.00014602867
0.000104255894 1.5362868e-05 9.426385e-05 -0.00012811845 -4.201056e-05 3.3127766e-05 -8.290708e-05 -2.829823e-05
-2.280474e-05 -3.2833315e-05 -4.6144605e-06 2.52455e-05 7.7144636e-05 -3.9612817e-07 0.00010840932 -0.0001428441

base_model.model.model.encoder.layer.0.attention.self.value.lora_A.weight f4 [8, 384]
00000000: adeb fb3c 4a4c acbc 92e5 b1bc f5ee a9bc
00000010: ad46 11bc dfb7 ffbc e1b9 00bd 7566 b1bc
00000020: 28a1 dfbc 55e2 2ebd 7195 0c3d ecb2 d83c
00000030: 05b9 bdbc dfa9 093d 043e d2bc 1f4a 35bd
00000040: b01e fabb 46fe 693c b75b a1bc e338 30bd
00000050: eb6f 43bc 65f9 5b3c 0735 04bc 67d8 173d
00000060: 9823 ce3c a910 e9bb 3acb 183d 863d 2d3d
00000070: 82f2 f63c abe6 9b3c 76a1 01bb 1d99 c43c
00000080: 7ba8 20bd ab5b d2bc 11b6 1cbd 02d8 c4bc
00000090: 2437 843c 4d98 df3c 5dfe 9dbc 24b6 3f3d
000000a0: b9af 773c 69ea 2dbd 57f4 463c 0dd2 003d
000000b0: 11dd eabc a99e 6c3c 667d 293d 3afb fabc
000000c0: e6a7 b43c c465 b3bc be96 993c 2698 56bc
000000d0: be2f 08bc 015d 523c 7f02 3bbb 425b 06bd
000000e0: 887e a93c 9656 f0bc 43a2 de3c 1116 9fbc
000000f0: 76fa 333c b845 45bd 4927 0c3d be03 70bc
00000100: f573 c53c 97b2 3d3d 095b bdbc 15d5 18bd
00000110: da2e 4f3c b7dd 173d 7040 09bd e8ec 1abd
00000120: 3227 fdbb 4df1 063d 655d ad3c e617 4fbd
00000130: 9b34 37bd faa1 1d3d c1b9 38bd f981 3b3d
00000140: 1153 fc3c 73e8 acbc 0396 4cbd 19a7 f0b8
00000150: f757 913b 58f7 4c3c fa31 8ebc d3cc b53c
00000160: 03d3 80bc fba7 bd3c 4396 dc3c 0101 2bbd
00000170: f90f e9bb f240 6d3c ca79 8cbc faaa 163d
00000180: 1d4f 4bbc 5d6b 25bd 1cf9 033d 93fb d43c
00000190: 1433 c4bc a544 d83c a62d 08b9 2772 1bbd
000001a0: 90b2 da3b 1b6d 53bc b1cc ed3c 274e 47bd
000001b0: e0b3 af3c f4e4 2dbd 78ae a33c 39d3 e4bb
000001c0: 51d2 27bd 933e 0b3d 469a e3bc f139 2f3d
000001d0: cda1 2e3d 6cc8 94bc c077 cb3c d5fb fdbc
000001e0: 55d9 33bd 0bfa 323d 88c5 1fbd 4ed5 21bc
000001f0: 0478 16bd f043 503d 03c5 083d 95cb 03bd
00000200: 78ca 5f3b 23ff 173d ff52 8ebc 357e 8bbc
00000210: b4bc bd3b 7f3e 893c 667e b4bc 6d7c 393c
00000220: 0bb4 1dbc 7fda 2a3d 0ff5 32bc 9a74 4d3c
00000230: 89c2 48bd 1240 20bd 4d61 96bc 606f a7bc
00000240: 5d7a 0abc ea6c 393c 7683 853c bd58 b0bc
00000250: 3261 7cbc 2b08 29bd 00a7 01b9 4838 3e3d
00000260: 9b2a 0f3c a11f 35bb fe2a f0bc 5b37 fa3c
00000270: 8323 fe3b 6e89 c1bc 0312 24bd ff9e 253d
00000280: 60d8 ef3c 354e 83bc 4565 863b 1383 eebc
00000290: c91e 77bc ce12 29bd 65b8 7c3c 085b 513b
000002a0: f9f1 ecbc 5bc7 b7bc 380e c23c 7efd 313d
000002b0: 71da 01bc 6b13 b13c a8ab 5ebc 6e64 bd3a
000002c0: 5ff5 b93b f094 363d 63a6 443c 67b5 073d
000002d0: 096d 213d f266 363d f0b0 65bc 3e3c 8bbc
000002e0: c061 a0bc 4f35 1b3d 74b6 cc3b 0393 0abd
000002f0: be17 083d cd51 b83c 6af3 dabc 8313 63bb
00000300: dfe6 4fbc 8656 083d 6c04 47bc 6d2c 00bc
00000310: d745 5f3a ae21 943c a05f 0fbc bd96 48bd
00000320: fab2 773a e671 63bc 5b68 eebc 9daa 183d
00000330: a75a a23c 267f 36bd 6991 31bc 6c7c 1bbd
00000340: a602 36bd 7295 3bbd 6953 4fbd 31b0 4f3b
00000350: 17d9 5dbc 4f2c acbc d691 be3b 4c55 18bc
00000360: 7bbc ca3b 1d67 333c f78a dd3c 7e3b d7bc
00000370: 1209 31bb d293 903c de29 883c d1e5 09bd
00000380: 841d ffb9 037b fa3c f838 363d cd3d 033c
00000390: 8bb7 3c3d 889e 933b 1ee5 66bc 1845 e13c
000003a0: 6f38 43bd 6f83 0e3d 4cd7 e8bc 57ac 333d
000003b0: 07f8 76ba ea3b febc 9ca1 4bbd 6b23 bd3c
000003c0: f9d9 3a3d 83a0 25bd efeb 693c 8262 bfbc
000003d0: 064c b5bb e871 31bd 1cc6 093d 53dd e03c
000003e0: 8c70 de3b 21ee 99bc bb85 3a3d 81b7 1f3d
000003f0: 184b 3bbd 9bba fe3c 5da2 43bd 08b2 9abc
0.030752027 -0.021032471 -0.021715913 -0.020743826 -0.008866948 -0.031215606 -0.031427268 -0.0216553
-0.027298525 -0.042696316 0.034322206 0.026452504 -0.023159513 0.033609267 -0.025664337 -0.04426014
-0.0076330528 0.014281815 -0.019697053 -0.043023 -0.011928539 0.0134261595 -0.008069283 0.03707161
0.025163457 -0.0071125817 0.037303187 0.042295 0.030144934 0.01903089 -0.0019780076 0.023998791
-0.039223175 -0.025678476 -0.03825957 -0.024028782 0.016139574 0.027294302 -0.019286329 0.046804562
0.015117579 -0.04245988 0.012143216 0.03145032 -0.028669866 0.014442124 0.041379355 -0.030637372
0.022052716 -0.021899112 0.018748637 -0.013097798 -0.008312164 0.012839557 -0.0028535423 -0.032801874
0.020690218 -0.029338162 0.027176982 -0.019419702 0.0109850075 -0.048162192 0.034217153 -0.01464933
0.024103144 0.046312895 -0.023114698 -0.037312586 0.012645448 0.037076678 -0.033508718 -0.037823588
-0.0077256197 0.032944966 0.021162698 -0.0505599 -0.044727903 0.03848455 -0.045099024 0.04577825
0.030801328 -0.021106934 -0.04994775 -0.00011475216 0.004435535 0.012510143 -0.017357815 0.022192394
-0.015725618 0.023151388 0.02692712 -0.041749004 -0.0071125 0.014480816 -0.017147917 0.03678415
-0.012408999 -0.040385593 0.03221999 0.025998866 -0.023950137 0.02639992 -0.00012986976 -0.03795066
0.0066741183 -0.012904431 0.029028269 -0.048658516 0.021448076 -0.042454675 0.019980654 -0.0069831875
-0.040972058 0.033995222 -0.027783524 0.042779867 0.042634774 -0.018161975 0.024837375 -0.031003872
-0.043908436 0.04369549 -0.03900674 -0.009877516 -0.03673555 0.05084604 0.03339101 -0.032176573
0.003414778 0.03710855 -0.01737356 -0.017027954 0.0057903174 0.016753433 -0.022032928 0.011321169
-0.009625445 0.04171228 -0.010922684 0.012540007 -0.04901365 -0.039123602 -0.018356944 -0.02043885
-0.008452025 0.011317471 0.016298037 -0.021526689 -0.015404033 -0.041267555 -0.00012364611 0.046440393
0.008738185 -0.002763726 -0.029317375 0.030543974 0.007755698 -0.023625102 -0.04005624 0.040434834
0.02927798 -0.016028503 0.0041014277 -0.029115235 -0.015083023 -0.0412777 0.015424822 0.0031945128
-0.028923975 -0.022433927 0.02368842 0.04345464 -0.007925616 0.021615705 -0.013590731 0.0014449486
0.0056750025 0.04457563 0.01200256 0.033131983 0.039410625 0.04453177 -0.014019236 -0.0169965
-0.01957786 0.037892636 0.006247336 -0.033831608 0.033225767 0.022499943 -0.026727397 -0.003464908
-0.012689321 0.03328564 -0.01214705 -0.007823092 0.0008517182 0.018082466 -0.008750826 -0.04897188
0.0009448972 -0.013882136 -0.029102495 0.037272085 0.019818617 -0.044554852 -0.010837891 -0.037960455
-0.04443612 -0.04579682 -0.050616655 0.0031690712 -0.013540528 -0.021017222 0.005815725 -0.00929768
0.0061870194 0.010949877 0.027043803 -0.026273485 -0.0027013463 0.017648611 0.016621526 -0.033666436
-0.0004865938 0.030576235 0.044487923 0.00801034 0.046073478 0.0045049824 -0.014092712 0.027498767
-0.04766124 0.034793314 -0.028422974 0.043865528 -0.0009421114 -0.031034429 -0.04971467 0.023088178
0.04561803 -0.04043628 0.014277442 -0.023362402 -0.0055327443 -0.04332152 0.033636197 0.027449286
0.006788319 -0.018790307 0.04553769 0.038993362 -0.04572591 0.03109484 -0.047762264 -0.01888372

base_model.model.model.encoder.layer.0.attention.self.value.lora_B.weight f4 [384, 8]
00000000: 515f 1537 109f bab8 8e29 0338 f5fb 0f39
00000010: 6b13 18b9 f699 feb8 208e 0d39 884e b3b8
00000020: a148 d5b8 c318 e5b8 b184 c8b7 8ed7 4b38
00000030: a12e 09b8 5704 fd37 cc33 d937 6915 0f39
00000040: d728 ffb7 b87e f038 1e2c d9b7 db51 e436
00000050: 2433 0e39 ddbe b238 17bc a6b7 a803 1138
00000060: d13f a138 21f5 0939 9357 11b9 529d 09b9
00000070: 21e3 cfb7 13b0 87b7 a621 0c39 2d83 0a39
00000080: 812d da37 df68 9538 c8b8 0bb9 1b09 e6b7
00000090: 3a36 00b9 4bdc 0f39 fb72 b138 60b0 c138
000000a0: 9b34 1cb9 d53b c936 0600 0d39 6478 0739
000000b0: 3fe3 8eb7 2926 c3b8 c0d1 fdb7 8eaa d6b7
000000c0: 0a43 be37 3417 2b37 25b7 ab38 ffb6 b136
000000d0: 0b52 0db9 e4ab b837 b9f2 0a39 aee1 1338
000000e0: 08c2 0438 98d2 0f39 01aa c0b7 0e63 06b8
000000f0: b9f6 7137 a328 d937 bede 07b9 e040 1039
00000100: 6730 00b9 35d2 0e39 0f6a b638 1981 25b9
00000110: c50d 0538 e419 0cb9 b8b4 1938 1306 0f39
00000120: c3ff 9136 5657 b438 c3f6 07b9 edfd 8737
00000130: fded 9d38 3680 bd38 cf56 ddb8 2255 0cb9
00000140: ff20 16b9 e66f a238 0568 fc38 af04 1038
00000150: 85b0 0939 5662 08b9 cf87 21b7 040f a538
00000160: 6874 11b9 d02d ebb8 f6cd 1239 9a16 ce37
00000170: dc05 a236 5f05 09b9 60e1 0939 ff47 f537
00000180: 3e0f 0c38 f1fc 0139 b705 01b8 1eea 05b8
00000190: d0e0 b738 c39f a538 fd68 9fb8 e66c a1b8
000001a0: 9201 3138 5a42 0db9 b38b e4b7 4d12 1239
000001b0: c4c0 08b9 0d5f b9b8 bb51 ac38 a229 08b9
000001c0: fdfd dbb7 4136 1138 b9b7 0438 bfe4 acb8
000001d0: 5132 bc37 c7e8 0db9 0b71 1d39 8c28 0f39
000001e0: e9be fa36 a78c 0e39 8727 cd37 4356 a5b8
000001f0: 61cf e837 3e84 bbb8 ef6b 1039 b291 1039
00000200: 165a afb8 5564 fcb8 8655 dfb7 0fc0 c838
00000210: fdd2 01b8 d47e 8937 3045 11b9 d1dd 0fb9
00000220: 54bb 0338 593d 1439 14a5 0ab9 615d 11b9
00000230: a6f2 b837 8374 1038 1c2e ec37 ef8a 1a39
00000240: d191 39b8 e385 ebb7 0b11 0e39 744d d337
00000250: bddd 0739 0e00 08b8 a2f8 ccb7 c77b e0b7
00000260: 490a 04b9 8ff3 04b9 0cad f7b7 7139 2835
00000270: d2e6 0bb9 7599 0b39 85fd 01b9 bfb7 c0b7
00000280: 6372 f238 06e2 b038 0f46 e1b7 92a6 c1b8
00000290: 8f25 5fb6 2170 ccb7 f48c 0db9 115d 69b8
000002a0: 8af2 a438 3ae8 0939 970d 1639 7847 20b9
000002b0: ddd1 0138 7cd1 b7b8 b0c1 1338 4b9d 0b39
000002c0: a3f3 e337 d2c3 d636 9999 97b7 509a b938
000002d0: 2051 1239 0eeb f1b7 3aee 0838 f2b8 05b8
000002e0: 11cf beb8 4a9e beb8 814e 0db9 77f9 02b8
000002f0: d754 19b9 7bf5 91b7 30e1 0438 2f11 c837
00000300: 49eb ceb8 fd96 0db9 2a35 cc38 6af4 2737
00000310: b883 c6b7 07ab d2b8 078e a5b5 54a0 4bb7
00000320: 6b69 ebb7 6825 a5b8 f237 b6b7 24f4 e538
00000330: ff1b c2b8 17a5 bfb8 3bda 1138 44c5 e437
00000340: 629f f938 35c7 0b39 c9d3 06b8 a5ca 05b8
00000350: 3037 f037 9867 7b37 3a3e c537 43d1 0939
00000360: 4ac6 c938 9f65 a1b8 1323 bcb8 fe1f a338
00000370: 545b 0cb8 322b cf38 dfc1 0cb9 48b4 0db9
00000380: d6e2 a4b7 92e3 e5b6 2f4f a6b8 ab73 abb8
00000390: 9c30 0939 37f9 a738 3fdc 0a39 61d1 fe38
000003a0: 3b1c 0a39 ff43 1139 e55e 06b8 94c2 12b9
000003b0: b887 0b39 76c4 0a39 3edd 8637 a55a 0c39
000003c0: 654c a538 6f72 1839 60a2 d8b7 111b 08b9
000003d0: a0c9 f637 f3de 0339 ef92 a8b8 6496 1439
000003e0: 2bad e637 3e08 11b9 a523 11b9 af1b c738
000003f0: 9ab8 f3b7 6ccb ed38 7cec 2636 5a1f 11b9
8.903285e-06 -8.898799e-05 3.1271535e-05 0.00013731404 -0.00014503083 -0.00012140341 0.00013499754 -8.550013e-05
-0.0001017016 -0.00010924183 -2.3903647e-05 4.8599723e-05 -3.2706772e-05 3.0161971e-05 2.5892536e-05 0.00013645519
-3.0417386e-05 0.00011467695 -2.588896e-05 6.8044587e-06 0.00013561227 8.5232525e-05 -1.9876328e-05 3.45741e-05
7.688965e-05 0.00013156656 -0.00013860902 -0.00013123945 -2.4782088e-05 -1.6175245e-05 0.00013363975 0.00013209572
2.6008815e-05 7.1244074e-05 -0.0001332491 -2.7422377e-05 -0.00012227232 0.00013719608 8.4614345e-05 9.2358096e-05
-0.00014896916 5.997232e-06 0.00013446817 0.00012919452 -1.7033539e-05 -9.3054325e-05 -3.0257623e-05 -2.5590209e-05
2.2680983e-05 1.0197797e-05 8.188029e-05 5.2963146e-06 -0.00013477371 2.2014552e-05 0.00013251127 3.525771e-05
3.1651958e-05 0.00013715995 -2.2967348e-05 -3.204034e-05 1.4422164e-05 2.5887339e-05 -0.00012957581 0.00013757078
-0.00012225063 0.00013620484 8.698191e-05 -0.00015783719 3.1722495e-05 -0.00013361085 3.664635e-05 0.00013639806
4.3511113e-06 8.5993364e-05 -0.00012966529 1.6211497e-05 7.530672e-05 9.0361034e-05 -0.000105542706 -0.00013383155
-0.00014317407 7.745605e-05 0.000120356715 3.4336637e-05 0.00013131097 -0.00013006604 -9.627968e-06 7.87061e-05
-0.00013871642 -0.000112142065 0.00014000371 2.4567638e-05 4.8286583e-06 -0.00013067339 0.00013149297 2.9239802e-05
3.3392796e-05 0.00012396627 -3.076132e-05 -3.192771e-05 8.7679946e-05 7.897571e-05 -7.6012664e-05 -7.697362e-05
4.220155e-05 -0.00013471526 -2.724477e-05 0.00013930463 -0.00013041781 -8.839192e-05 8.2168226e-05 -0.0001298548
-2.6225107e-05 3.4621222e-05 3.1642357e-05 -8.2442064e-05 2.2434777e-05 -0.00013533524 0.00015014799 0.00013652648
7.4728055e-06 0.00013594572 2.445631e-05 -7.8838806e-05 2.7753124e-05 -8.941487e-05 0.00013773119 0.00013787186
-8.36143e-05 -0.00012034985 -2.6623497e-05 9.572517e-05 -3.0952495e-05 1.6390732e-05 -0.00013854052 -0.00013720176
3.1407297e-05 0.00014137234 -0.00013222202 -0.00013863064 2.2047501e-05 3.4440785e-05 2.8154864e-05 0.00014738341
-4.424324e-05 -2.8076529e-05 0.00013548524 2.5189227e-05 0.00012957207 -3.2424978e-05 -2.4434474e-05 -2.676052e-05
-0.00012592332 -0.00012679234 -2.9525276e-05 6.2668465e-07 -0.0001334206 0.0001331324 -0.00012396842 -2.2973747e-05
0.000115607654 8.434434e-05 -2.6854714e-05 -9.233983e-05 -3.3251451e-06 -2.437091e-05 -0.00013499317 -5.5638204e-05
7.865306e-05 0.00013151849 0.00014310177 -0.00015285413 3.0951447e-05 -8.7651395e-05 3.5227917e-05 0.00013314669
2.7173961e-05 6.4004935e-06 -1.8072127e-05 8.8502304e-05 0.00013953866 -2.8838895e-05 3.2646793e-05 -3.1881915e-05
-9.098475e-05 -9.08939e-05 -0.00013476053 -3.1226748e-05 -0.00014622822 -1.7399658e-05 3.1680975e-05 2.384986e-05
-9.866671e-05 -0.00013503055 9.7373806e-05 1.0010883e-05 -2.3664776e-05 -0.00010045437 -1.2334793e-06 -1.2137072e-05
-2.8063272e-05 -7.8747806e-05 -2.1722142e-05 0.00010965046 -9.2558555e-05 -9.13834e-05 3.4773937e-05 2.7271577e-05
0.000119029326 0.00013330283 -3.214533e-05 -3.18984e-05 2.8635928e-05 1.4984886e-05 2.3513207e-05 0.00013143294
9.621361e-05 -7.696007e-05 -8.971072e-05 7.778405e-05 -3.3463657e-05 9.878575e-05 -0.00013423663 -0.00013513968
-1.9655952e-05 -6.8512245e-06 -7.930246e-05 -8.17546e-05 0.00013083447 8.0096004e-05 0.00013242754 0.00012150664
0.00013171222 0.00013853608 -3.2036467e-05 -0.00013996131 0.00013306632 0.00013233893 1.6077069e-05 0.00013385208
7.882043e-05 0.0001453848 -2.5824818e-05 -0.00012980054 2.9419374e-05 0.00012576189 -8.038233e-05 0.00014170405
2.7498774e-05 -0.00013831348 -0.00013841556 9.494216e-05 -2.905382e-05 0.00011338931 2.487358e-06 -0.00013839957

base_model.model.model.encoder.layer.1.attention.self.query.lora_A.weight f4 [8, 384]
00000000: b112 98bb 4f6c e63c 5f54 3dbd 6134 903c
00000010: 4870 2abd 13a5 163c 63f3 cc3b 5264 18bc
00000020: dc05 153d 11d1 973c c2fa a43b 6dd9 7c3b
00000030: b58f 1cbd 273a 193d 301a 5ebc a82a 9f3b
00000040: c44e c4ba d98d 18bd ddd6 b93c c92b 873c
00000050: 5a4a 6b3c 0b54 b5bc d32e d0bb dffb 36bd
00000060: fcf4 02bd 466d 983c 523c b6b7 e7e0 0ebd
00000070: 1473 fcba 930c 3c3c 85dc f03c dccd f2bc
00000080: e7da 80bc c659 583c bbde 103d e81b 933c
00000090: 0f32 37bd eac4 233d 63d0 593c 0264 8bbc
000000a0: 2d1a 02bb bdce f83c f440 36bc 3d4f dc3c
000000b0: 756d 223d 3a88 423d 4c1f 373d 010f 12bd
000000c0: ff35 08bc aaa7 29bd a4cb 86bc 9236 e8bb
000000d0: 6245 fdbb 1c3b 6e3c 4e3a 913c 84da 94bc
000000e0: 41f3 5e39 f3c7 05bd 4076 203d 743c 48bd
000000f0: cb47 35bd 7998 2a3d c26f ddbc be61 c2bc
00000100: 1d48 013c 886a bd3c c772 8d3c 7415 513d
00000110: 9cfb 0dbb ce5c 22bd 0750 bc3c a143 febc
00000120: 96f9 1e3d b1fd 23bc cdc3 313d dbd8 8c3c
00000130: f742 c0bc b613 133d 4c75 01bd 7fb7 023d
00000140: 386c fb3c 3450 e53c 8047 debc 5c14 21bb
00000150: 33b7 1bba 7069 5b3c 22c4 333d 8cd1 b0bb
00000160: 81b0 243d a002 e8bc c882 33bd d57f 13bd
00000170: 9bd9 83bc 4a9a 2d3d 8356 82bc 3264 613c
00000180: a8e7 9a3c b37b 06bd 2191 6dbb 9b05 3e3d
00000190: 34b2 e33b f0b9 543b 936e 40bd 29a1 5e3c
000001a0: 1e75 a53c 2250 d83c 2380 07bc d422 d43c
000001b0: 9367 f5bc 5fda e2bc 0d7b 36bd bead b13a
000001c0: 0bf7 09bd f18b cf3b 9cd7 373d 30e0 7dbc
000001d0: 7c2e cdbb b824 93bc a194 ad3c 75d8 483d
000001e0: 1e7b ff3a 47ac e9bc 36d4 07bc 877a fdbc
000001f0: c317 ac3c 2dd2 46bc f3ce 46bb acf6 83bc
00000200: fc36 323d 82c5 723c 6e36 3bbc cfea 80bc
00000210: 4951 c73c 20f7 0c3c 76a4 ba3c c4d0 123d
00000220: 401a 8b3c 64c7 0ebd ac35 b2bc 65e9 cabc
00000230: 370e 1f3d 83ae 0dbd 042c eebc d6fc 2ebd
00000240: 33ca 313d ff09 3c3c e3d0 29bd e1c8 f0bc
00000250: fa73 ff3c 5d1d a93c e6b3 493d 7674 1b3d
00000260: b54d fabc 2821 3abd f220 633c 529a 5ebc
00000270: 741f b4bc f0ea 1d3d 476d 2e3d f30a 13bd
00000280: 54d5 3cbd 8818 45bc 92f2 29bd 5afc 183d
00000290: c9ab 2fba 157a 16bd d431 0a3d 9600 8dbb
000002a0: dafe 43bd 246e e73c ee63 4fbd 7af3 093d
000002b0: bd3a 4a3d e688 cd3c 1a11 13bc 0b0a 8f3c
000002c0: 831b 203d d5cc 1f3d 5295 35bd 3496 ed3c
000002d0: fe40 dfbc 8fcb 0bbc 7fd1 31bd 0e14 2b3b
000002e0: 241d c8bc 8f34 743c 8788 a53b 0e8a 1abd
000002f0: ff38 0cbc 73d7 e7bc eeca 4a3d f0dc 1c3c
00000300: f063 193d ff87 483d fca9 dfbc 6e1a 2bbd
00000310: ce4b 11bd 6358 3fbd da20 0c3c bc7d d33c
00000320: 6951 dc3c 587a d0bb 7cdb b13c c942 3dbd
00000330: d151 a53c 4e2c 293d 6cd9 0dbd 7adf cfbb
00000340: 168c cdbc 2082 c6bc e2bc 47bd 0bb2 2a3d
00000350: ce87 38bd beaa 2cbd 39eb 873c 604e cd3c
00000360: 5c63 043c bef1 be3c 0a4b 4d39 0d1e 44bc
00000370: ce55 22bd 2c56 9c3c b906 ec3c 7c14 8dbc
00000380: 9cdc e4bc aee2 ed3c b9fb 573c 4eac 01bd
00000390: bce8 11ba 0090 83bc e5ad 2ebc 747b e2bc
000003a0: a0fa 8fbc cabe 333d 52b8 e43c 4a83 5fbc
000003b0: 8738 ce3c 6299 b03c 5f41 04bc a38f e5bc
000003c0: d902 ed3c fa81 423d 242d ed3c 9453 08bd
000003d0: 6d59 2f3c 9a12 033d 0204 e8bc f380 183c
000003e0: 6af9 e2bc ec6d 183d d6b2 333d e325 953c
000003f0: f3f6 c0bc 13ce 47bc 9222 b7ba a2d9 1d3c
-0.0046409 0.028127817 -0.04622304 0.017603101 -0.041610986 0.00919463 0.0062546 -0.009301262
0.03638254 0.018532308 0.0050347755 0.0038581744 -0.038222987 0.037408974 -0.013556048 0.00485738
-0.0014977087 -0.03724465 0.022685463 0.01650037 0.0143609885 -0.022134801 -0.006353238 -0.044673797
-0.031971917 0.018606793 -2.172418e-05 -0.034882452 -0.001926037 0.011477607 0.029402027 -0.029639177
-0.01572938 0.013204997 0.035368662 0.017957643 -0.044725474 0.039982714 0.013294312 -0.01701546
-0.0019852028 0.030372018 -0.0111238845 0.026893253 0.039655168 0.047493197 0.04470758 -0.03565884
-0.008313655 -0.041419663 -0.016454525 -0.0070865834 -0.0077292183 0.01454046 0.017727997 -0.018170603
0.00021262189 -0.03266139 0.039175272 -0.048885778 -0.04425792 0.041649316 -0.02703083 -0.023728248
0.007890728 0.023122087 0.017266644 0.05104585 -0.0021664863 -0.039639287 0.022987379 -0.031038107
0.038812242 -0.010009215 0.04339962 0.017193248 -0.023469431 0.03590747 -0.031606004 0.031913277
0.030691251 0.027992345 -0.027133703 -0.0024578786 -0.00059400796 0.0133918375 0.04388822 -0.0053960737
0.04020739 -0.028321564 -0.043825895 -0.036010582 -0.016094973 0.04238347 -0.015910393 0.013756799
0.01890929 -0.032832813 -0.0036249834 0.046392065 0.0069487337 0.003245946 -0.04698045 0.013588228
0.020197447 0.026405398 -0.008270296 0.025895514 -0.029956615 -0.027692018 -0.044550944 0.0013555808
-0.033682864 0.006333821 0.044883355 -0.015495345 -0.006261645 -0.017961845 0.021189036 0.049034555
0.0019491648 -0.028524531 -0.008290341 -0.030942215 0.021007424 -0.012135071 -0.0030335754 -0.016108833
0.04350947 0.014817597 -0.011426551 -0.015736965 0.024330752 0.008603841 0.0227835 0.035843626
0.01698029 -0.034858122 -0.021754108 -0.024769494 0.038831916 -0.034590255 -0.029073723 -0.042721592
0.043405723 0.011476993 -0.041458976 -0.029392662 0.031183232 0.020643884 0.04924383 0.037952863
-0.030554632 -0.045441777 0.013862835 -0.0135865975 -0.021987654 0.038554132 0.042584684 -0.035899114
-0.046101883 -0.0120297745 -0.0414911 0.037350036 -0.0006701318 -0.03673752 0.033738926 -0.0043030484
-0.047850467 0.028250761 -0.05063241 0.033679463 0.049372423 0.025089692 -0.008976245 0.017460844
0.039088737 0.039013702 -0.044331856 0.029002286 -0.02725267 -0.008532419 -0.04341268 0.0026104483
-0.024427958 0.014905109 0.0050516757 -0.037729315 -0.008558511 -0.028300976 0.049509935 0.00957416
0.037448823 0.04895782 -0.027302735 -0.041773252 -0.035472684 -0.04671515 0.008552754 0.02581679
0.026894288 -0.0063622408 0.021711104 -0.04620627 0.020180615 0.041302018 -0.034631178 -0.006343779
-0.025091212 -0.02423197 -0.048764117 0.0416737 -0.04505139 -0.04215502 0.016591655 0.025061786
0.00808033 0.023308631 0.00019578278 -0.011970055 -0.03963261 0.019084059 0.0288118 -0.017221682
-0.027937226 0.029038753 0.013182574 -0.031658463 -0.0005565991 -0.016059875 -0.010661577 -0.027646758
-0.017575562 0.043883123 0.027919922 -0.013642142 0.025173439 0.021557514 -0.008072226 -0.028022593
0.028932022 0.047487237 0.028952189 -0.03328283 0.010702473 0.03200016 -0.028322224 0.009308088
-0.02770682 0.037214205 0.043871723 0.018206542 -0.023555255 -0.012195128 -0.0013972095 0.009634407
